…
itertools.chain(self.netG_A.parameters(), self.netG_B.parameters()
https://www.liaoxuefeng.com/wiki/001374738125095c955c1e6d8bb493182103fac9270762a000/001415616001996f6b32d80b6454caca3d33c965a07611f000
****************************************************************************
可以尝试一下，看示例还是不错的
python打印函数调用关系图
https://www.cnblogs.com/GO-NO-1/p/7155684.html
****************************************************************************

cycleGAN的网络  256*256 9个block
https://blog.csdn.net/c2a2o2/article/details/73338026
ResnetGenerator(
  (model): Sequential(
    (0): ReflectionPad2d((3, 3, 3, 3))
    (1): Conv2d(3, 64, kernel_size=(7, 7), stride=(1, 1))
    (2): InstanceNorm2d(64, eps=1e-05, momentum=0.1, affine=False, track_running_stats=False)
    (3): ReLU(inplace)
    (4): Conv2d(64, 128, kernel_size=(3, 3), stride=(2, 2), padding=(1, 1))
    (5): InstanceNorm2d(128, eps=1e-05, momentum=0.1, affine=False, track_running_stats=False)
    (6): ReLU(inplace)
    (7): Conv2d(128, 256, kernel_size=(3, 3), stride=(2, 2), padding=(1, 1))
    (8): InstanceNorm2d(256, eps=1e-05, momentum=0.1, affine=False, track_running_stats=False)
    (9): ReLU(inplace)
    (10): ResnetBlock(
      (conv_block): Sequential(
        (0): ReflectionPad2d((1, 1, 1, 1))
        (1): Conv2d(256, 256, kernel_size=(3, 3), stride=(1, 1))
        (2): InstanceNorm2d(256, eps=1e-05, momentum=0.1, affine=False, track_running_stats=False)
        (3): ReLU(inplace)
        (4): ReflectionPad2d((1, 1, 1, 1))
        (5): Conv2d(256, 256, kernel_size=(3, 3), stride=(1, 1))
        (6): InstanceNorm2d(256, eps=1e-05, momentum=0.1, affine=False, track_running_stats=False)
      )
    )
    (11): ResnetBlock(
      (conv_block): Sequential(
        (0): ReflectionPad2d((1, 1, 1, 1))
        (1): Conv2d(256, 256, kernel_size=(3, 3), stride=(1, 1))
        (2): InstanceNorm2d(256, eps=1e-05, momentum=0.1, affine=False, track_running_stats=False)
        (3): ReLU(inplace)
        (4): ReflectionPad2d((1, 1, 1, 1))
        (5): Conv2d(256, 256, kernel_size=(3, 3), stride=(1, 1))
        (6): InstanceNorm2d(256, eps=1e-05, momentum=0.1, affine=False, track_running_stats=False)
      )
    )
    (12): ResnetBlock(
      (conv_block): Sequential(
        (0): ReflectionPad2d((1, 1, 1, 1))
        (1): Conv2d(256, 256, kernel_size=(3, 3), stride=(1, 1))
        (2): InstanceNorm2d(256, eps=1e-05, momentum=0.1, affine=False, track_running_stats=False)
        (3): ReLU(inplace)
        (4): ReflectionPad2d((1, 1, 1, 1))
        (5): Conv2d(256, 256, kernel_size=(3, 3), stride=(1, 1))
        (6): InstanceNorm2d(256, eps=1e-05, momentum=0.1, affine=False, track_running_stats=False)
      )
    )
    (13): ResnetBlock(
      (conv_block): Sequential(
        (0): ReflectionPad2d((1, 1, 1, 1))
        (1): Conv2d(256, 256, kernel_size=(3, 3), stride=(1, 1))
        (2): InstanceNorm2d(256, eps=1e-05, momentum=0.1, affine=False, track_running_stats=False)
        (3): ReLU(inplace)
        (4): ReflectionPad2d((1, 1, 1, 1))
        (5): Conv2d(256, 256, kernel_size=(3, 3), stride=(1, 1))
        (6): InstanceNorm2d(256, eps=1e-05, momentum=0.1, affine=False, track_running_stats=False)
      )
    )
    (14): ResnetBlock(
      (conv_block): Sequential(
        (0): ReflectionPad2d((1, 1, 1, 1))
        (1): Conv2d(256, 256, kernel_size=(3, 3), stride=(1, 1))
        (2): InstanceNorm2d(256, eps=1e-05, momentum=0.1, affine=False, track_running_stats=False)
        (3): ReLU(inplace)
        (4): ReflectionPad2d((1, 1, 1, 1))
        (5): Conv2d(256, 256, kernel_size=(3, 3), stride=(1, 1))
        (6): InstanceNorm2d(256, eps=1e-05, momentum=0.1, affine=False, track_running_stats=False)
      )
    )
    (15): ResnetBlock(
      (conv_block): Sequential(
        (0): ReflectionPad2d((1, 1, 1, 1))
        (1): Conv2d(256, 256, kernel_size=(3, 3), stride=(1, 1))
        (2): InstanceNorm2d(256, eps=1e-05, momentum=0.1, affine=False, track_running_stats=False)
        (3): ReLU(inplace)
        (4): ReflectionPad2d((1, 1, 1, 1))
        (5): Conv2d(256, 256, kernel_size=(3, 3), stride=(1, 1))
        (6): InstanceNorm2d(256, eps=1e-05, momentum=0.1, affine=False, track_running_stats=False)
      )
    )
    (16): ResnetBlock(
      (conv_block): Sequential(
        (0): ReflectionPad2d((1, 1, 1, 1))
        (1): Conv2d(256, 256, kernel_size=(3, 3), stride=(1, 1))
        (2): InstanceNorm2d(256, eps=1e-05, momentum=0.1, affine=False, track_running_stats=False)
        (3): ReLU(inplace)
        (4): ReflectionPad2d((1, 1, 1, 1))
        (5): Conv2d(256, 256, kernel_size=(3, 3), stride=(1, 1))
        (6): InstanceNorm2d(256, eps=1e-05, momentum=0.1, affine=False, track_running_stats=False)
      )
    )
    (17): ResnetBlock(
      (conv_block): Sequential(
        (0): ReflectionPad2d((1, 1, 1, 1))
        (1): Conv2d(256, 256, kernel_size=(3, 3), stride=(1, 1))
        (2): InstanceNorm2d(256, eps=1e-05, momentum=0.1, affine=False, track_running_stats=False)
        (3): ReLU(inplace)
        (4): ReflectionPad2d((1, 1, 1, 1))
        (5): Conv2d(256, 256, kernel_size=(3, 3), stride=(1, 1))
        (6): InstanceNorm2d(256, eps=1e-05, momentum=0.1, affine=False, track_running_stats=False)
      )
    )
    (18): ResnetBlock(
      (conv_block): Sequential(
        (0): ReflectionPad2d((1, 1, 1, 1))
        (1): Conv2d(256, 256, kernel_size=(3, 3), stride=(1, 1))
        (2): InstanceNorm2d(256, eps=1e-05, momentum=0.1, affine=False, track_running_stats=False)
        (3): ReLU(inplace)
        (4): ReflectionPad2d((1, 1, 1, 1))
        (5): Conv2d(256, 256, kernel_size=(3, 3), stride=(1, 1))
        (6): InstanceNorm2d(256, eps=1e-05, momentum=0.1, affine=False, track_running_stats=False)
      )
    )
    (19): ConvTranspose2d(256, 128, kernel_size=(3, 3), stride=(2, 2), padding=(1, 1), output_padding=(1, 1))
    (20): InstanceNorm2d(128, eps=1e-05, momentum=0.1, affine=False, track_running_stats=False)
    (21): ReLU(inplace)
    (22): ConvTranspose2d(128, 64, kernel_size=(3, 3), stride=(2, 2), padding=(1, 1), output_padding=(1, 1))
    (23): InstanceNorm2d(64, eps=1e-05, momentum=0.1, affine=False, track_running_stats=False)
    (24): ReLU(inplace)
    (25): ReflectionPad2d((3, 3, 3, 3))
    (26): Conv2d(64, 3, kernel_size=(7, 7), stride=(1, 1))
    (27): Tanh()
  )
)
# 判别器
print(net)
1*3*256*256
NLayerDiscriminator(
  (model): Sequential(
    (0): Conv2d(3, 64, kernel_size=(4, 4), stride=(2, 2), padding=(1, 1))
    (1): LeakyReLU(negative_slope=0.2, inplace)
    (2): Conv2d(64, 128, kernel_size=(4, 4), stride=(2, 2), padding=(1, 1))
    (3): InstanceNorm2d(128, eps=1e-05, momentum=0.1, affine=False, track_running_stats=False)
    (4): LeakyReLU(negative_slope=0.2, inplace)
    (5): Conv2d(128, 256, kernel_size=(4, 4), stride=(2, 2), padding=(1, 1))
    (6): InstanceNorm2d(256, eps=1e-05, momentum=0.1, affine=False, track_running_stats=False)
    (7): LeakyReLU(negative_slope=0.2, inplace)
    (8): Conv2d(256, 512, kernel_size=(4, 4), stride=(1, 1), padding=(1, 1))
    (9): InstanceNorm2d(512, eps=1e-05, momentum=0.1, affine=False, track_running_stats=False)
    (10): LeakyReLU(negative_slope=0.2, inplace)
    (11): Conv2d(512, 1, kernel_size=(4, 4), stride=(1, 1), padding=(1, 1))
  )
)
1*1*30*30

2018-10-31
现在cycleGAN基本都清楚了，还缺一个计算loss的时候，分别是多大，对这个挺感兴趣的。
对于Idtloss还有疑问，不是很懂其为什么这么做，初步猜测是为了保证domain B的通过G_A还是domain B的，domain A通过G_A也是domain B的，论文5.2与猜想一致
Image_pool的作用，按照github上作者的说法，是为了记忆历史信息，有paper参考，暂且跳过去。
